…
class=&quot;p&quot;&gt;))&lt;/span&gt;
&lt;span class=&quot;n&quot;&gt;model&lt;/span&gt;&lt;span class=&quot;o&quot;&gt;.&lt;/span&gt;&lt;span class=&quot;n&quot;&gt;summary&lt;/span&gt;&lt;span class=&quot;p&quot;&gt;()&lt;/span&gt;
&lt;/code&gt;&lt;/pre&gt;
&lt;/div&gt;

&lt;div class=&quot;highlighter-rouge&quot;&gt;&lt;pre class=&quot;highlight&quot;&gt;&lt;code&gt;_________________________________________________________________
Layer (type)                 Output Shape              Param #   
=================================================================
conv2d_46 (Conv2D)           (None, 224, 224, 16)      432       
_________________________________________________________________
batch_normalization_105 (Bat (None, 224, 224, 16)      48        
_________________________________________________________________
activation_1479 (Activation) (None, 224, 224, 16)      0         
_________________________________________________________________
max_pooling2d_66 (MaxPooling (None, 56, 56, 16)        0         
_________________________________________________________________
dropout_84 (Dropout)         (None, 56, 56, 16)        0         
_________________________________________________________________
conv2d_47 (Conv2D)           (None, 56, 56, 32)        4608      
_________________________________________________________________
batch_normalization_106 (Bat (None, 56, 56, 32)        96        
_________________________________________________________________
activation_1480 (Activation) (None, 56, 56, 32)        0         
_________________________________________________________________
max_pooling2d_67 (MaxPooling (None, 14, 14, 32)        0         
_________________________________________________________________
dropout_85 (Dropout)         (None, 14, 14, 32)        0         
_________________________________________________________________
conv2d_48 (Conv2D)           (None, 14, 14, 64)        18432     
_________________________________________________________________
batch_normalization_107 (Bat (None, 14, 14, 64)        192       
_________________________________________________________________
activation_1481 (Activation) (None, 14, 14, 64)        0         
_________________________________________________________________
max_pooling2d_68 (MaxPooling (None, 4, 4, 64)          0         
_________________________________________________________________
dropout_86 (Dropout)         (None, 4, 4, 64)          0         
_________________________________________________________________
conv2d_49 (Conv2D)           (None, 4, 4, 128)         73728     
_________________________________________________________________
batch_normalization_108 (Bat (None, 4, 4, 128)         384       
_________________________________________________________________
activation_1482 (Activation) (None, 4, 4, 128)         0         
_________________________________________________________________
flatten_2 (Flatten)          (None, 2048)              0         
_________________________________________________________________
dropout_87 (Dropout)         (None, 2048)              0         
_________________________________________________________________
dense_100 (Dense)            (None, 512)               1049088   
_________________________________________________________________
dense_101 (Dense)            (None, 133)               68229     
=================================================================
Total params: 1,215,237
Trainable params: 1,214,757
Non-trainable params: 480
_________________________________________________________________
&lt;/code&gt;&lt;/pre&gt;
&lt;/div&gt;

&lt;p&gt;As already elaborated, designing a CNN architecture that achieves even 2% accuracy is not an easy task. The first thing you notice is t
…
&lt;span class=&quot;n&quot;&gt;model&lt;/span&gt;&lt;span class=&quot;o&quot;&gt;.&lt;/span&gt;&lt;span class=&quot;n&quot;&gt;summary&lt;/span&gt;&lt;span class=&quot;p&quot;&gt;()&lt;/span&gt;
&lt;/code&gt;&lt;/pre&gt;
&lt;/div&gt;

&lt;div class=&quot;highlighter-rouge&quot;&gt;&lt;pre class=&quot;highlight&quot;&gt;&lt;code&gt;____________________________________________________________________________________________________
Layer (type)                     Output Shape          Param #     Connected to                     
====================================================================================================
input_3 (InputLayer)             (None, 7, 7, 512)     0                                            
____________________________________________________________________________________________________
input_4 (InputLayer)             (None, 1, 1, 2048)    0                                            
____________________________________________________________________________________________________
global_average_pooling2d_3 (Glob (None, 512)           0           input_3[0][0]                    
____________________________________________________________________________________________________
global_average_pooling2d_4 (Glob (None, 2048)          0           input_4[0][0]                    
____________________________________________________________________________________________________
dense_5 (Dense)                  (None, 128)           65536       global_average_pooling2d_3[0][0] 
____________________________________________________________________________________________________
dense_6 (Dense)                  (None, 512)           1048576     global_average_pooling2d_4[0][0] 
____________________________________________________________________________________________________
batch_normalization_4 (BatchNorm (None, 128)           512         dense_5[0][0]                    
____________________________________________________________________________________________________
batch_normalization_5 (BatchNorm (None, 512)           2048        dense_6[0][0]                    
____________________________________________________________________________________________________
activation_4 (Activation)        (None, 128)           0           batch_normalization_4[0][0]      
____________________________________________________________________________________________________
activation_5 (Activation)        (None, 512)           0           batch_normalization_5[0][0]      
____________________________________________________________________________________________________
concatenate_2 (Concatenate)      (None, 640)           0           activation_4[0][0]               
                                                                   activation_5[0][0]               
____________________________________________________________________________________________________
dropout_3 (Dropout)              (None, 640)           0           concatenate_2[0][0]              
____________________________________________________________________________________________________
dense_7 (Dense)                  (None, 640)           409600      dropout_3[0][0]                  
____________________________________________________________________________________________________
batch_normalization_6 (BatchNorm (None, 640)           2560        dense_7[0][0]                    
____________________________________________________________________________________________________
activation_6 (Activation)        (None, 640)           0           batch_normalization_6[0][0]      
____________________________________________________________________________________________________
dropout_4 (Dropout)              (None, 640)           0           activation_6[0][0]               
____________________________________________________________________________________________________
dense_8 (Dense)                  (None, 133)           85253       dropout_4[0][0]                  
====================================================================================================
Total params: 1,614,085
Trainable params: 1,611,525
Non-trainable params: 2,560
____________________________________________________________________________________________________
&lt;/code&gt;&lt;/pre&gt;
&lt;/div&gt;

&lt;div class=&quot;highlighter-rouge
…
